Parameters/simulated_parameters.npz (npz, 17298 bytes, 4 tensors)

sigma_e2 f8 []
000000 b8 36 9e 5d 79 62 a4 40
       2609.2370423738284

sigma_g2 f8 []
000000 b8 36 9e 5d 79 62 a4 40
       2609.2370423738284

h2 f8 []
000000 00 00 00 00 00 00 e0 3f
       0.5

beta f8 [2001]
000000 b4 94 5f 25 c2 f8 36 40 1f c1 4d 3b 8d f2 38 40
       22.971712432704138 24.947467524035456
000010 15 6c 16 37 e5 a2 16 40 bc fc 7a eb d1 ae 2b 40
       5.659077511542837 13.841445311320392
000020 eb 5a ff 64 e6 b0 3f 40 f5 64 b4 3a 48 69 3a 40
       31.691015541403356 26.411258381883233
000030 21 42 5f 4a 47 15 fb bf 8b be 1c 25 62 54 fa 3f
       -1.6926949410591379 1.6456014108370336
000040 9f 4a 9a eb 33 c7 d0 bf 08 aa 65 d1 45 e2 c6 bf
       -0.2621583748633984 -0.17878029560536413
000050 64 55 3b 3f f7 c1 e6 3f fb 66 70 62 50 ef cf 3f
       0.711177466868929 0.24949078375430375
000060 7e cc 6f 40 a8 26 04 40 a2 5e aa c0 2a 17 f5 3f
       2.518875602161244 1.3181560064312312
000070 e2 29 53 93 c4 f9 ca 3f 60 98 24 2f f5 99 e8 3f
       0.2107473105773599 0.768793670726847
000080 b4 01 ba e3 7d 7e e2 3f 7f b4 00 6d db b3 04 40
       0.5779408881936008 2.587820865234391
000090 01 3c b3 02 f7 bd d6 bf f0 02 ff eb 1a 5a e1 3f
       -0.35534453643498415 0.542249165468176
0000a0 2e cd e2 7f 5d ab f7 bf 1e 98 70 ab 08 b0 11 c0
       -1.4793372149986896 -4.421908072230535
0000b0 c8 24 1d 89 15 1d f2 3f cf 46 f2 b4 b9 f4 f7 3f
       1.1321006160745117 1.4972474163263774
0000c0 99 db b1 64 46 91 f4 bf f5 75 d6 50 5d 73 0f 40
       -1.28546752294435 3.931330329460929
0000d0 c4 08 d3 f2 fb 26 04 c0 45 1f 0f 52 20 4a b4 3f
       -2.519035241189245 0.0792560768451241
0000e0 14 ed 50 6e e3 bf d4 bf 53 20 4b c5 22 3d 05 40
       -0.32421193860109665 2.6548514760543553
0000f0 74 d4 89 14 2b 5c 04 40 7b 22 94 f1 15 2d d1 3f
       2.5450040440142008 0.2683768138090625
000100 60 c9 53 a2 bb f5 e4 3f 58 48 02 da 60 9a f8 bf
       0.6549966974692261 -1.5376900211308762
000110 f1 ad 5c 4e 5c 72 0b c0 64 f3 2f fb 82 48 e3 bf
       -3.4308401224168326 -0.6026015192033864
000120 aa 15 85 cd db 54 d1 3f 94 18 d7 e9 22 0c 01 40
       0.2708043581991101 2.1309259670989125
000130 78 79 08 45 21 a9 00 40 4a 0e 1b ca c3 77 e5 bf
       2.082582988091584 -0.6708697268845267
000140 0d 7d 6f 98 5c c1 e0 bf bd 92 c5 2a f0 0e fd bf
       -0.5236037232643028 -1.8161470099231984
000150 b1 24 37 fe 24 ad 03 c0 b4 69 5f ca 8c a4 07 c0
       -2.459543214853135 -2.9553466616027553
000160 d3 00 c2 5d de 07 0b 40 3f e9 66 3d 6f 3f ec bf
       3.3788420986967167 -0.8827434729821916
000170 6c e2 4d 9f d1 47 e8 bf 70 f4 f1 43 f7 5b 01 c0
       -0.7587669478808272 -2.169905215093017
000180 c7 6f 17 ce e3 8b f5 3f 76 22 0a 12 e2 5c 06 c0
       1.3466527986956736 -2.7953530701964224
000190 54 98 52 72 20 95 d7 bf 5b 8c 06 a5 de d0 f8 bf
       -0.36847697414703373 -1.5509935804664312
0001a0 e9 f0 93 80 be 71 e5 3f 31 cd d4 34 cb 4f ec bf
       0.6701347838675505 -0.8847404510364979
0001b0 0a 37 95 5b fc 5b 00 c0 ec d3 5b 36 06 fe a8 bf
       -2.044914927951031 -0.04881305135305766
0001c0 2a a2 81 78 95 bd e7 3f 27 5c b2 55 7b 7e bd 3f
       0.7418925622596977 0.11521120874600453
0001d0 79 7a 4d 00 c3 c3 e0 3f 11 84 53 7b 2f 94 f1 bf
       0.5238966947470792 -1.0986780946188939
0001e0 0e 99 55 83 eb 1a e4 bf ea dd 72 dc c1 a2 f2 bf
       -0.6282861294864988 -1.1647356616284648
0001f0 b2 f4 38 7d af ed e3 bf eb 1f a4 a1 d9 88 f6 bf
       -0.6227643438102375 -1.4084106744867266
000200 9e bf 3a ee 89 eb 07 c0 e7 7c 81 25 fc aa d3 3f
       -2.990009175460684 0.3073110929744431
000210 ec 36 58 8d da 44 e6 bf 70 80 80 72 b4 96 06 c0
       -0.6959049950252996 -2.8235863633599863
000220 0f e8 a8 25 66 a6 e9 3f 3c 26 22 69 cf 24 f9 bf
       0.8015623794119636 -1.571486864735916
000230 f1 a6 9a c3 68 08 b7 3f 2b 52 c5 bb 84 34 f4 3f
       0.08997206473818743 1.2628218970104494
000240 5b ad 2f 97 88 98 cc 3f e7 11 14 9b 74 93 ff 3f
       0.22340495473995756 1.9734998758077553
000250 16 b7 79 3e 39 1c 01 c0 75 3b ff 3d cf 4c e6 3f
       -2.1387810593504453 0.6968761645201612
000260 93 35 11 1f 5f fa f2 bf e0 1c ab 61 da 21 f8 bf
       -1.1861258710444857 -1.5082649054691544
000270 09 ad bf 2e a3 0a f0 bf 77 70 7f 42 9b 44 e1 bf
       -1.0025970293161797 -0.5396248148713444
000280 24 2e c2 25 6c e7 b8 3f 03 a7 6f f1 10 25 00 c0
       0.09728122636641295 -2.018098722667561
000290 79 17 89 45 e5 f6 f8 3f e5 13 84 0d 44 cf e9 3f
       1.5602772442084343 0.8065510047896366
0002a0 0c 25 bf d5 6c 49 05 c0 9e 42 25 13 30 9f 04 40
       -2.6608521174390543 2.5777284141298216
0002b0 7d 02 c5 8c 2c 45 0a 40 ef 29 15 03 6a 55 00 40
       3.283776378404865 2.0417061081727677
0002c0 7f 3b 4d 86 e4 f1 d3 bf 32 74 78 e4 6e ac fd bf
       -0.31163895717048 -1.8545979427938275
0002d0 08 35 d0 6b c9 38 fd 3f 13 4f 94 62 a9 58 e6 bf
       1.8263639651734724 -0.6983229565980501
0002e0 17 fa b4 5d 4e f0 00 40 a5 b6 48 27 69 16 d7 3f
       2.1173369713644763 0.3607428439744161
0002f0 7b 0d 11 08 bf 10 fb 3f 6a 04 3f f8 77 c0 e3 3f
       1.6915884318449048 0.617244706016334
000300 61 d8 f4 ef c4 94 f3 3f 71 39 aa 02 80 9f 92 3f
       1.223820626573364 0.018186569368987052
000310 3d 86 0a 4e e9 be 08 40 c0 d8 43 a6 00 23 cc 3f
       3.0932184311830313 0.21981819265756108
000320 e1 74 44 a3 cf 47 e6 3f 04 27 0d d2 fc 17 0a 40
       0.6962660015884944 3.2617126856101795
000330 45 c0 43 2e d3 ac 02 c0 ea ef 3a 1c b7 9a 01 c0
       -2.334387170260046 -2.2005445676313586
000340 a0 5a 10 9c 5d dd fa 3f c0 54 47 af 59 41 00 c0
       1.6790443512196944 -2.0319093412059317
000350 5b e7 e3 ac 7d ee 0a 40 e8 6c 53 c1 d2 ec e6 bf
       3.366450644211836 -0.7164090896507362
000360 ec c4 7e a4 cd b6 f4 bf d3 cd f7 10 23 a5 0a 40
       -1.2946297097772073 3.3306332898734836
000370 d8 9e 54 ca bd 83 04 40 ab 2f 09 11 ae e0 09 40
       2.5643268401216623 3.234707005589333
000380 d5 df 30 72 ea 1b f9 3f d4 85 4d d0 f2 dd f7 bf
       1.5693153820593484 -1.4916866432980571
000390 ce f9 f0 7a 75 77 0a 40 ff 5f a3 da 60 b5 dd bf
       3.3083295445241907 -0.46419545508751975
0003a0 cd 62 ca cc 02 3d f6 3f 0f c0 3f 9f 42 40 fa 3f
       1.3898952483779567 1.6406885357537282
0003b0 78 17 db 34 dd 2e d1 bf 80 4f a3 e9 92 04 f1 3f
       -0.2684853569193062 1.063616669319316
0003c0 cb f5 d8 ae 93 8e f9 3f 20 3d 24 3e 16 dd e4 3f
       1.597308810232209 0.6519881452276515
0003d0 05 9a 72 52 ad 77 fe bf ba a0 e0 88 b0 87 e0 3f
       -1.904218027173216 0.5165636704814667
0003e0 a5 19 99 59 02 61 02 40 db e3 a3 0d 99 3f f3 bf
       2.2973677635047403 -1.2030268223590983
0003f0 78 e0 19 2c 51 96 d0 bf cb b5 ea 5d 60 1e e8 bf
       -0.2591746264147399 -0.7537080606759273
000400 d9 0d 43 49 c8 9f 09 40 4a 27 8c ef 94 a1 f2 3f
       3.203018734320477 1.164448676807711
000410 89 29 64 b4 75 95 e6 3f d8 22 8e 7e 27 56 f5 bf
       0.7057446025149129 -1.33353375850327
000420 18 a5 6e a4 62 e3 ed 3f a5 8a 4f 26 0a b0 f2 bf
       0.934006997257856 -1.1679784294616777
000430 c9 16 4a c8 47 3a ac 3f d3 f1 a2 52 ff 9e f1 bf
       0.05513214416445817 -1.1013177135456444
000440 41 12 4d 4b f1 be f2 3f 45 03 65 62 39 f5 ef 3f
       1.1716168347785614 0.9986845895547068
000450 d2 76 18 e4 15 17 d7 bf 85 20 e9 69 ec f2 e5 3f
       -0.3607840278144582 0.685903746468299
000460 2e cc 58 00 b4 4a fe bf 12 58 03 42 d9 a9 04 c0
       -1.893238068919128 -2.5829339177389636
000470 22 94 08 e9 82 5a e8 3f 26 23 6c e1 d8 79 d2 3f
       0.761048751014304 0.2886869622603164
000480 cd af 16 c8 37 99 f1 3f fa 73 b2 15 cb 82 10 40
       1.0999067131005973 4.127727831856641
000490 80 39 5d 47 97 2c fa 3f dc 4f 5a c6 ff 4b f9 bf
       1.6358864581739851 -1.5810544727473745
0004a0 e5 b7 a6 5b a6 f4 fe 3f 2c 21 c1 e7 d6 3b 02 c0
       1.9347289638640117 -2.2792184930623502
0004b0 d8 a6 ff d4 67 95 e9 bf bc c6 8c 29 38 42 be bf
       -0.7994879875306777 -0.11819792761232412
0004c0 06 ca 44 4f a3 bd 07 40 15 61 09 f5 a5 a3 f4 bf
       2.9675966446750435 -1.2899531909698159
0004d0 31 ad 95 da 26 e7 f6 bf 33 60 af 7c c1 d3 c5 bf
       -1.4314335382903887 -0.1705247744382646
0004e0 51 26 c1 93 08 63 f2 bf ba cd 4e 69 e5 38 ff 3f
       -1.1491781016979028 1.951390658720682
0004f0 61 8a 72 77 8d ed fd bf f5 6f 1b 8b b1 cc ff bf
       -1.870496241179943 -1.9874740060686211
000500 e5 d7 f8 10 36 44 e8 bf e6 78 73 08 90 9a eb bf
       -0.7583265620694389 -0.8626175084171137
000510 4f a3 4d 6d 83 bc 0a 40 b3 b9 ab a3 a5 4f fa 3f
       3.3420475520437445 1.644445075358459
000520 e8 aa c6 58 0b 69 c3 3f 77 00 03 f9 e9 fa 00 c0
       0.1516431983448776 -2.1225165800133783
000530 47 ea a5 fb 50 66 f7 3f f6 f8 c9 04 02 b8 fb bf
       1.4624795751575606 -1.7324238001888808
000540 d4 1d 46 85 ac 67 05 c0 a7 66 cd 13 3a 76 00 40
       -2.6756220256827223 2.05772796125969
000550 9f ba 62 0b 16 91 e1 3f af 9f 4f bd 03 85 f9 3f
       0.548960706937425 1.594974269386494
000560 10 09 11 fb 69 aa e1 3f b7 e8 13 8a c4 be f7 3f
       0.5520524886744926 1.4840741532957915
000570 3e 52 b8 28 b0 0a f2 bf 2c 82 fb 4e 6a a9 fc bf
       -1.1276094046235268 -1.7913611493351125
000580 97 35 57 0a 8f e3 f2 3f e5 f8 0e 1d c6 43 f6 bf
       1.180556335824212 -1.391546357640942
000590 5e e5 4a 47 ff 1b f3 bf 9f 8d 76 56 88 3f e9 bf
       -1.1943352494111745 -0.7890054405910866
0005a0 78 da a0 dd 5a 00 9f 3f 4b 19 c7 36 ce 9e e3 bf
       0.030274791504974335 -0.6131354398610623
0005b0 48 05 d3 44 48 0d 03 c0 f9 27 14 51 23 d6 f1 bf
       -2.3814854981325517 -1.1147797743928989
0005c0 d1 3b 02 d9 f1 ce 0e c0 57 65 f2 2c b1 53 f1 3f
       -3.8510472253615053 1.082932639669101
0005d0 ef 88 d5 11 e2 32 06 c0 bb c2 e1 8f 06 9b fe bf
       -2.774845256165569 -1.9128480549226612
0005e0 01 8a 36 8b 58 21 b7 3f be bb a2 a1 d0 7e f4 bf
       0.0903525676608652 -1.2809606851476327
0005f0 83 38 05 74 71 61 05 40 80 aa 7b e5 12 ea 01 c0
       2.672579676064801 -2.239293854557502
000600 a0 a4 98 2b 59 9a dd 3f fd 6e e3 0a 0f 6b b1 bf
       0.462545673918223 -0.06803983703451517
000610 19 82 08 0f 82 2f 00 c0 9b ea 97 70 c0 00 ed 3f
       -2.0231972860785956 0.9063417624559692
000620 e9 b6 a1 cd 20 04 d3 bf 16 5e ff e4 73 63 f5 3f
       -0.29712696152897294 1.3367804475036613
000630 0e d0 78 76 55 d2 f6 3f 69 7d 91 67 84 f9 0d 40
       1.4263510349092061 3.7468345729136456
000640 cf a1 1d 48 fc 84 02 40 54 ab f1 70 4e 76 e4 bf
       2.3149343141596783 -0.6394417005479718
000650 f5 a6 24 50 15 89 da bf 9a 94 61 5c 83 79 fe 3f
       -0.41461689783555694 1.9046662911071395
000660 8f 9c a4 68 c1 28 f2 3f 16 d3 30 7f 66 bd f1 3f
       1.1349500739686709 1.1087403267276321
000670 bc 58 ec 32 bb 67 06 c0 52 64 96 3c 99 92 a5 bf
       -2.8006500223519577 -0.042134083410197434
000680 ca a3 1f 13 f2 73 f4 bf b5 62 4d 91 ad 07 df 3f
       -1.2783070323005057 0.48484362783123497
000690 56 67 04 9f 9b c2 c5 bf 9b 00 36 04 3f 39 f9 3f
       -0.17000146164428526 1.5764761127939326
0006a0 c5 e8 78 23 ff 94 e1 3f 5c a0 c3 8c 96 ca f5 3f
       0.5494380657976526 1.3619599817848416
0006b0 30 52 8e 83 00 da e9 bf c7 15 c8 ec 5a 2c fa bf
       -0.8078615731670364 -1.635828900268608
0006c0 f6 90 bd c4 2d ba e6 bf 2c 82 27 2e 10 30 9e bf
       -0.7102269022548444 -0.029480221573864693
0006d0 c3 3e 12 d6 c4 03 e5 3f a4 31 11 ab 4f 4e 0f 40
       0.6567100697593208 3.913237892591683
0006e0 40 3e 69 2b ae bc b2 bf 89 cf 55 cb ee 7d fa bf
       -0.0731915336593767 -1.655745310094945
0006f0 8d 73 80 24 1f 2d e3 bf 3a ef 0e e1 f1 b1 e9 bf
       -0.5992580140042364 -0.8029717822714482
000700 7f 62 a5 b2 b8 af ea 3f 0a 06 b5 ae 93 59 05 c0
       0.8339503754787784 -2.668738713168527
000710 ab 80 99 b0 f9 0c bc 3f 3f 07 36 80 54 59 d1 3f
       0.10957298814310217 0.2710772754727379
000720 7f 46 ef a1 d0 bc d9 3f b0 73 c8 9f a5 8d f0 bf
       0.4021493512528664 -1.0345817796253236
000730 4f 6b 83 52 b9 5f da bf 37 63 a6 63 7c bb 03 c0
       -0.4120925241274351 -2.466545847430463
000740 27 2b 12 3a b2 57 eb bf 7d 09 8e cf a3 16 ee bf
       -0.8544551023672725 -0.9402636579327887
000750 fa c9 39 4b 51 0f e7 3f 8c ba 9e b2 41 05 00 c0
       0.7206198186161707 -2.002566714734092
000760 02 92 ba c3 31 a6 f5 3f 7f 33 b4 a1 4b b5 04 40
       1.353074802938068 2.588523162185481
000770 24 e8 c5 d9 bb ae 0c c0 54 70 5b 0d 2b a0 e7 3f
       -3.5853192342301714 0.7383017788774944
000780 dd 55 c8 82 4f c2 f2 3f f5 df bc c7 48 aa f1 bf
       1.1724391087239987 -1.1040733148820412
000790 d9 d0 62 bc df 04 e6 bf ee 99 e8 b8 bf 75 cd bf
       -0.688094966832547 -0.23015591171970534
0007a0 72 2e f1 ca 57 81 e0 bf 1e d6 08 9e 92 20 e1 bf
       -0.5157889331544097 -0.5352261625873245
0007b0 3a 24 c7 15 30 39 07 c0 bd b1 4c 80 31 ef ff 3f
       -2.9029237462423483 1.995896817369711
0007c0 8b 23 ed 26 55 eb fd 3f 83 d6 c7 84 65 8a f6 bf
       1.8699542542037502 -1.4087882220023011
0007d0 e7 36 23 55 c2 51 04 c0 d3 66 ca 69 5e e1 ec 3f
       -2.539921441208992 0.9025108400557776
0007e0 21 fc 07 25 d5 e9 ef bf ba 12 50 d0 ab 78 cf 3f
       -0.9972940181031654 0.24587009116671316
0007f0 96 81 4e 2e f0 b2 e1 bf 2c c4 33 a0 1b 2a f3 3f
       -0.5530930427958534 1.1977802522562895
